new/best_model.pth (torch, 988969 bytes, 362 tensors)

conv0.weight f4 [16, 1, 3, 3]
-0.12391457 -0.030556781 -0.270396 -0.12171292 -0.040429424 0.101460725 -0.0750209 0.03993267
0.05789238 0.018786365 -0.44589552 0.047004137 0.046047736 -0.051696047 -0.22812586 -0.18497492
0.11891538 -0.025934987 0.04173351 -0.06748776 0.096973665 0.14175321 -0.023719173 -0.15784103
0.2722586 -0.17017014 0.08697694 0.07665424 0.021796389 0.07583139 0.06917079 0.09882174
-0.2612573 -0.081912495 -0.18360023 -0.1436551 0.10842746 -0.03555833 0.0638006 -0.09125654
0.0035029314 0.20774417 -0.10390404 0.19026631 0.042380996 -0.10839825 0.3604245 0.098918304
-0.04698433 0.008586984 0.15706101 -0.04743369 -0.17283703 0.059584875 0.0394266 0.01875756
0.25854683 -0.021893268 0.21691747 -0.093755685 0.076882176 -0.1723972 -0.09760014 0.08267385
-0.03632613 0.2620033 0.08785958 0.026117401 -0.11009675 0.033433806 0.014247603 -0.09122099
0.115848064 0.14299425 0.0047957995 -0.054352257 -0.12538299 -0.023188435 -0.09902318 -0.10060882
-0.058493868 0.12288389 -0.00402227 0.12800197 0.1372039 -0.09569692 0.034730773 0.046622723
-0.31696606 -0.07303431 0.09900974 -0.06457779 -0.25916797 0.24983193 -0.0031419627 -0.16497043
0.06268006 0.123269506 -0.184539 -0.08580723 -0.18537733 -0.18000562 -0.05252513 0.05306919
0.21703014 0.09602921 0.21877013 0.030152516 -0.13873543 -0.14514247 -0.13887632 0.06713762
0.054250903 0.0017003431 0.24579766 0.049285613 0.1825794 0.08318769 -0.23588601 -0.20538044
0.09493042 0.21919766 -0.05523348 -0.009793258 0.055515654 0.013827258 0.11965438 0.0036735043
-0.25377494 0.03511752 -0.0068978146 -0.035888165 0.31380144 -0.12314457 0.13281745 0.06296335
-0.09920354 -0.04544947 -0.04533548 -0.30299765 0.15869132 -0.033175975 -0.03197482 0.5875331
00000000: ecc6 fdbd 3752 fabc 5871 8abe a044 f9bd
00000010: 5399 25bd a4ca cf3d 8fa4 99bd 7090 233d
00000020: 8f20 6d3d dde5 993c 6b4c e4be 6987 403d
00000030: 8d9c 3c3d 3cbf 53bd d399 69be 116a 3dbe
00000040: e889 f33d 9c75 d4bc c2f0 2a3d 0637 8abd
00000050: 219a c63d c127 113e b64e c2bc 14a1 21be
00000060: 7b65 8b3e 1541 2ebe f720 b23d e6fc 9c3d
00000070: 578e b23c 7d4d 9b3d 6aa9 8d3d 0d63 ca3d
00000080: 84c3 85be bdc1 a7bd b301 3cbe 531a 13be
00000090: 370f de3d 9da5 11bd e4a9 823d b5e4 babd
000000a0: 7091 653b e3ba 543e a4cb d4bd 2cd5 423e
000000b0: b297 2d3d e7ff ddbd 8f89 b83e ae95 ca3d
000000c0: a472 40bd 6cb0 0c3c 9ad4 203e d449 42bd
000000d0: 31fc 30be 450f 743d c97d 213d 74a9 993c
000000e0: 4060 843e 8359 b3bc 9d1f 5e3e fb02 c0bd
000000f0: 6774 9d3d e488 30be 95e2 c7bd e850 a93d
00000100: b5ca 14bd 4c25 863e b9ef b33d 29f4 d53c
00000110: 687a e1bd e3f1 083d c76e 693c 12d2 babd
00000120: c041 ed3d 166d 123e 1526 9d3b 79a0 5ebd
00000130: 6664 00be acf5 bdbc aacc cabd ff0b cebd
00000140: 4497 6fbd 8daa fb3d 3fcd 83bb f312 033e
00000150: 2e7f 0c3e bffc c3bd db41 0e3d 78f7 3e3d
00000160: 6049 a2be 0393 95bd 9ec5 ca3d 5c41 84bd
00000170: aab1 84be f1d3 7f3e 63e9 4dbb 02ee 28be
00000180: 675e 803d b974 fc3d cbf7 3cbe b3bb afbd
00000190: 8ed3 3dbe 6553 38be 9724 57bd 145f 593d
000001a0: 263d 5e3e f6aa c43d 4705 603e 6902 f73c
000001b0: a910 0ebe 3aa0 14be 9835 0ebe 737f 893d
000001c0: 3236 5e3d 0cde de3a 62b2 7b3e b6df 493d
000001d0: 18f6 3a3e 4f5e aa3d 1a8c 71be 404f 52be
000001e0: e16a c23d 5a75 603e 803c 62bd e773 20bc
000001f0: 6264 633d b98b 623c 5b0d f53d 2dbf 703b
00000200: caee 81be 63d7 0f3d 1007 e2bb 78ff 12bd
00000210: 95aa a03e 3833 fcbd 4c01 083e eef2 803d
00000220: 3a2b cbbd 3929 3abd b2b1 39bd 8222 9bbe
00000230: fa7f 223e 88e3 07bd 07f8 02bd 9268 163f

norm0.weight f4 [16]
1.0213156 0.8388245 0.91983604 1.01751 0.96078926 1.1164634 0.98584676 1.0093101
0.96411985 0.8919869 1.0017922 1.1044644 1.0193508 1.0123997 0.9266364 1.0571918
00000000: 78ba 823f 34bd 563f 607a 6b3f c53d 823f
00000010: 49f6 753f 46e8 8e3f 7460 7c3f 1331 813f
00000020: 8fd0 763f 4159 643f ba3a 803f 175f 8d3f
00000030: 167a 823f 5096 813f 0b38 6d3f 1052 873f

norm0.bias f4 [16]
-0.026293054 -0.20552102 0.06466791 0.047279917 -0.09910968 0.15674692 0.15865198 0.083175085
0.10574672 0.1449058 0.07641162 0.12962686 0.09052263 0.0055649765 -0.013304421 0.036331963
00000000: 8864 d7bc 1a74 52be 9c70 843d 96a8 413d
00000010: 04fa cabd 4482 203e aa75 223e b357 aa3d
00000020: bd91 d83d 3062 143e b27d 9c3d e7bc 043e
00000030: ee63 b93d 685a b63b c9fa 59bc d3d0 143d

norm0.running_mean f4 [16]
-0.011216115 -0.010603822 0.010444607 -0.0073030973 0.0066488218 0.003838589 0.0036243587 0.0070325816
-0.0014969094 0.0040403837 -0.0058032917 -0.0011081616 0.0039921445 -0.0053500766 0.0072825807 0.016438851
00000000: ccc3 37bc a7bb 2dbc db1f 2b3c d24e efbb
00000010: 5cde d93b d690 7b3b a686 6d3b 9271 e63b
00000020: f233 c4ba 3265 843b 8a29 bebb bc3f 91ba
00000030: 89d0 823b b24f afbb b7a2 ee3b c5aa 863c

norm0.running_var f4 [16]
0.18776841 0.38855147 0.07351233 0.18162185 0.13836397 0.16084951 0.10450188 0.08010596
0.086301304 0.09857601 0.19574608 0.14695449 0.15114567 0.0674988 0.1121448 0.2679428
00000000: 5d46 403e 38f0 c63e a28d 963d 14fb 393e
00000010: 49af 0d3e bcb5 243e 1505 d63d 980e a43d
00000020: bdbe b03d 38e2 c93d a971 483e 3d7b 163e
00000030: eec5 1a3e d03c 8a3d 2cac e53d cc2f 893e

inception1.branch1.weight f4 [4, 16, 1, 1]
0.7443337 -0.40821838 -0.6836347 -1.38864 -0.017312858 0.5873835 0.013038919 0.123275876
0.489453 -1.0726707 0.055910297 -0.8492323 -0.064699546 0.6648745 -0.5151332 0.64858836
-0.4020616 -0.72476584 0.61781764 0.21860716 0.73151785 -0.17940822 -0.2689907 0.88427204
-0.7934148 -0.23330612 1.0677723 0.07439461 -1.0743439 -0.29906547 0.6669936 -0.9385234
0.7223712 -0.131567 -0.43337813 -0.111051716 -0.18493266 -0.5817385 0.1418723 -0.06303611
0.2873147 0.42353275 1.2700384 0.03455285 0.09334603 0.4228776 1.2227974 -0.84283704
-1.762549 0.6672992 -1.0870359 0.233531 0.08842632 0.41234243 -0.37306902 -0.2751214
-1.4101497 1.3811138 0.30541393 1.1428046 0.47509354 0.74127626 0.11817927 0.07418264
00000000: a78c 3e3f 0002 d1be af02 2fbf f5be b1bf
00000010: b2d3 8dbc c45e 163f 31a1 553c 1078 fc3d
00000020: 9599 fa3e 464d 89bf 3202 653d 4a67 59bf
00000030: 3281 84bd 3735 2a3f c5df 03bf e309 263f
00000040: 05db cdbe 418a 39bf 4c29 1e3f 8eda 5f3e
00000050: c144 3b3f cab6 37be 26b9 89be a75f 623f
00000060: 3b1d 4bbf cde7 6ebe c3ac 883f 345c 983d
00000070: 1a84 89bf 1c1f 99be 18c0 2a3f 1243 70bf
00000080: 52ed 383f 80b9 06be bde3 ddbe 156f e3bd
00000090: fd5e 3dbe d0ec 14bf f946 113e 1319 81bd
000000a0: ea1a 933e 49d9 d83e 9e90 a23f 4a87 0d3d
000000b0: 342c bf3d 6a83 d83e a084 9c3f 2bc4 57bf
000000c0: 359b e1bf 1fd4 2a3f fe23 8bbf c022 6f3e
000000d0: dc18 b53d 8c1e d33e e702 bfbe b6dc 8cbe
000000e0: c97f b4bf 56c8 b03f 375f 9c3e 6c47 923f
000000f0: 763f f33e 48c4 3d3f f907 f23d 11ed 973d

inception1.branch1.bias f4 [4]
-0.17964867 -0.021991922 -0.0061756866 0.020525126
00000000: d2f5 37be 6728 b4bc 6a5d cabb 4f24 a83c

inception1.branch2.0.weight f4 [4, 16, 1, 1]
-1.2411159 0.4427727 -0.23538116 0.38172796 -0.23619108 0.19299296 0.4482264 -0.04368286
0.49348623 0.30956393 0.31696656 0.43839148 -1.265088 -0.44422752 -0.88879496 -0.41863105
1.5335453 -0.10858701 -0.5588639 -0.3348621 -0.30066735 -0.6760672 0.73361886 0.81501585
-0.69746107 -1.9686682 -0.55553174 1.2720014 0.93218285 -0.52397853 1.0475476 -0.08395744
1.06404 -0.23695953 0.028567486 0.6550527 -0.5494034 1.4809206 -0.3629879 0.91893494
-0.80470884 -0.4334525 -0.022460653 -0.63256633 0.16393119 -0.4026888 -0.5274222 -0.5001401
-0.364864 0.38099805 1.1664689 0.010863405 -0.32231647 0.044494458 -0.21388024 0.47580492
1.0400695 0.28294092 -0.6106825 0.23935938 1.1599265 -0.16512965 -0.06914083 -0.33801955
00000000: e3dc 9ebf 1ab3 e23e c207 71be d971 c33e
00000010: 13dc 71be f29f 453e ee7d e53e ccec 32bd
00000020: 3aaa fc3e 2a7f 9e3e 7149 a23e d974 e03e
00000030: 67ee a1bf ca71 e3be 1188 63bf cf56 d6be
00000040: 364b c43f de62 debd b411 0fbf 0c73 abbe
00000050: 12f1 99be bd12 2dbf 72ce 3b3f e1a4 503f
00000060: cf8c 32bf 52fd fbbf 5437 0ebf f1d0 a23f
00000070: 89a3 6e3f 7523 06bf 0a16 863f e1f1 abbd
00000080: 7632 883f 85a5 72be 5c06 ea3c 89b1 273f
00000090: b4a5 0cbf ce8e bd3f 8dd9 b9be 523f 6b3f
000000a0: 6601 4ebf 7ced ddbe 67ff b7bc deef 21bf
000000b0: 94dd 273e 3a2d cebe 2405 07bf 2e09 00bf
000000c0: 74cf babe 2d12 c33e da4e 953f 6cfc 313c
000000d0: aa06 a5be d23f 363d 6c03 5bbe b49c f33e
000000e0: ff20 853f a2dd 903e b055 1cbf a01a 753e
000000f0: 7978 943f bf17 29be b599 8dbd e610 adbe

inception1.branch2.0.bias f4 [4]
-0.123574145 0.16947189 -0.13247977 -0.26646015
00000000: 7114 fdbd 0a8a 2d3e c7a8 07be 776d 88be

inception1.branch2.1.weight f4 [4]
1.0555363 1.0091182 0.9712486 0.9843194
00000000: d01b 873f c92a 813f c0a3 783f 5bfc 7b3f

inception1.branch2.1.bias f4 [4]
0.04730562 0.13780583 0.14079252 0.2640919
00000000: 8ac3 413d f91c 0d3e ea2b 103e 0e37 873e

inception1.branch2.1.running_mean f4 [4]
-0.64061534 0.2698414 0.04729914 0.6200181
00000000: 5eff 23bf a728 8a3e bebc 413d 82b9 1e3f

inception1.branch2.1.running_var f4 [4]
3.7848914 5.786069 2.460396 2.1650443
00000000: a93b 7240 7a27 b940 2177 1d40 1690 0a40

inception1.branch2.3.weight f4 [8, 4, 3, 3]
-0.19264689 -0.04453061 0.210765 -0.15127182 -0.07085291 0.020787897 -0.107350096 -0.041304383
0.09441611 -0.032634735 -0.14813828 0.106284276 0.09383164 0.014794448 -0.25837883 0.14871107
0.09218305 -0.0005962754 0.06288582 0.008652558 0.55946225 -0.12701811 -0.014028995 0.039384812
-0.45054647 0.017082596 -0.10228293 -0.14161848 -0.025710162 0.08042373 -0.25992167 0.19060624
-0.13341512 0.048143905 0.035642087 0.2857311 -0.15935507 0.05678652 0.0013314915 0.19974743
0.039701678 -0.12756161 -0.035008065 0.23358253 0.019248467 0.16253087 0.035679176 0.24324444
-0.0038665754 -0.094588906 0.08999824 -0.029785732 -0.2719893 0.13435143 -0.11879119 0.25823414
-0.08895698 -0.048582405 0.078658074 0.0014213441 -0.010603362 -0.026224868 0.15027213 0.18854848
0.25177607 -0.033781387 0.109509856 0.23474546 -0.13350558 -0.44217962 -0.20337541 -0.07190072
-0.41198173 -0.17157099 0.4052835 -0.056228377 -0.15875106 0.14381781 0.0012114819 -0.018529836
-0.18800358 0.3735599 0.20906778 0.3284137 -0.49926722 0.15955289 0.15149735 0.05219727
0.014160204 0.0007672622 0.24887842 -0.12111516 -0.27046663 -0.18791403 -0.22572905 -0.16486858
-0.052888796 -0.025548067 0.08330366 0.18544053 0.15966651 0.4004396 0.40140158 0.28023437
-0.02909712 -0.32342014 0.080936365 -0.1994408 -0.30053553 -0.083429836 -0.42775735 -0.20727254
0.14000663 -0.105560794 0.14226449 -0.10023732 0.35319304 -0.14806712 -0.1484547 0.36256045
0.06575046 0.10563278 0.17077576 0.023708448 -0.15579833 -0.077953376 0.16929965 -0.01606884
-0.1720462 -0.20863332 -0.15984368 -0.1352985 0.19403118 -0.07823506 -0.23533973 0.2527902
0.025204562 -0.25889906 -0.06276731 -0.06624417 -0.08689539 0.1370195 0.083295114 0.11386137
0.09938892 -0.04865387 0.003127783 0.08707379 0.32445872 0.28102294 -0.17011787 0.33330983
0.021431578 0.3106191 0.11004359 -0.32688677 -0.011413586 -0.2988071 -0.17285186 -0.2655208
0.076246336 -0.11513371 0.3104449 0.10110812 0.107086174 0.1993833 0.09609516 0.10849557
-0.026062172 0.2678492 -0.085315816 0.035028316 -0.050647996 -0.069225214 0.14001551 -0.054125044
-0.024107281 -0.16321872 0.15359512 0.1698765 -0.27337423 -0.16837408 0.061737873 -0.1165963
-0.14492424 0.12855726 0.21087207 0.04750992 -0.008854913 0.018756239 0.1538663 0.024175826
0.16412191 0.28725025 0.08786615 -0.04760669 0.052140277 -0.27909833 0.00074799935 0.04512347
0.177225 -0.44993418 0.021607067 0.02768822 0.4047848 0.09455998 -0.21736123 0.12615944
-0.01235428 0.045165893 0.0063136336 -0.031624816 -0.15351492 -0.012265015 -0.0025355231 0.16207948
0.31875888 0.20850721 -0.0033502844 0.25413302 -0.016221533 -0.13963793 -0.0023641163 0.21933405
-0.11916288 -0.13783363 -0.13247424 -0.40482435 0.043365736 -0.030194921 -0.15096523 0.23113276
0.061269384 -0.031161323 -0.1559295 0.12361709 -0.19334625 0.16331364 0.028066216 -0.19034532
0.33485767 -0.06087321 -0.37733215 -0.15753625 -0.07074287 0.028003717 -0.23398915 0.12217896
0.18853717 0.3153751 0.09489277 0.19667096 0.09960163 -0.18927205 0.13828512 -0.09104148
00000000: 3a45 45be bb65 36bd c8d2 573e 00e7 1abe
00000010: 551b 91bd 614b aa3c 5eda dbbd c92e 29bd
00000020: 3c5d c13d 00ac 05bd 90b1 17be 92ab d93d
00000030: ce2a c03d 6a64 723c 3b4a 84be b747 183e
00000040: 78ca bc3d 5d4f 1cba 48ca 803d 75c3 0d3c
00000050: eb38 0f3f 0911 02be dfd9 65bc f851 213d
00000060: 07ae e6be cdf0 8b3c b679 d1bd 6f04 11be
00000070: 1e9e d2bc 32b5 a43d 7414 85be 482e 433e
00000080: f99d 08be 8b32 453d 70fd 113d 594b 923e
00000090: fa2d 23be fb98 683d 7185 ae3a 978a 4c3e
000000a0: 3a9e 223d 839f 02be 9e64 0fbd 4230 6f3e
000000b0: f6ae 9d3c 7e6e 263e 5424 123d 1215 793e
000000c0: 5f66 7dbb d4b7 c1bd ff50 b83d 3501 f4bc
000000d0: 2e42 8bbe 6c93 093e cc48 f3bd 4437 843e
000000e0: 142f b6bd 58fe 46bd 7c17 a13d 654c ba3a
000000f0: b9b9 2dbc 89d5 d6bc f0e0 193e da12 413e
00000100: cbe8 803e 5a5e 0abd b446 e03d 1d61 703e
00000110: b0b5 08be 5e65 e2be a541 50be af40 93bd
00000120: 45ef d2be 4eb0 2fbe 5281 cf3e ba4f 66bd
00000130: a38f 22be fa44 133e 96ca 9e3a e2cb 97bc
00000140: 0384 40be 3e43 bf3e dd15 563e d725 a83e
00000150: f49f ffbe d561 233e 1f22 1b3e cecc 553d
00000160: 3300 683c 1822 493a fcd9 7e3e 3a0b f8bd
00000170: 9a7a 8abe 896c 40be 8425 67be 4fd3 28be
00000180: eca1 58bd 2e4a d1bc 1c9b aa3d 1fe4 3d3e
00000190: 9e7f 233e 6b06 cd3e 8284 cd3e e17a 8f3e
000001a0: 155d eebc 5397 a5be f7c1 a53d 363a 4cbe
000001b0: cbdf 99be 43dd aabd 0303 dbbe 413f 54be
000001c0: e65d 0f3e 4230 d8bd c8ad 113e 3949 cdbd
000001d0: b8d5 b43e e89e 17be 8204 18be 86a1 b93e
000001e0: 2da8 863d 0056 d83d d7df 2e3e 3838 c23c
000001f0: 9989 1fbe 05a6 9fbd e35c 2d3e cda2 83bc
00000200: e12c 30be f9a3 55be 10ae 23be b18b 0abe
00000210: 1cb0 463e b439 a0bd e6fc 70be b86d 813e
00000220: cc79 ce3c 6b8e 84be 268c 80bd 06ab 87bd
00000230: 36f6 b1bd d74e 0c3e a196 aa3d 2630 e93d
00000240: 6b8c cb3d 4849 47bd 7efb 4c3b be53 b23d
00000250: 741f a63e 3de2 8f3e 6133 2ebe 96a7 aa3e
00000260: 4791 af3c 7709 9f3e 895e e13d b45d a7be
00000270: 0d00 3bbc 3ffd 98be 1400 31be 58f2 87be
00000280: 0a27 9c3d 39cb ebbd a2f2 9e3e c611 cf3d
00000290: ff4f db3d 232b 4c3e 8acd c43d ed32 de3d
000002a0: 5680 d5bc 8823 893e 0fba aebd da79 0f3d
000002b0: 4674 4fbd f3c5 8dbd 3a60 0f3e 39b2 5dbd
000002c0: a27c c5bc cf22 27be 0a48 1d3e 1bf4 2d3e
000002d0: b5f7 8bbe 416a 2cbe dae0 7c3d 0aca eebd
000002e0: 0567 14be 84a4 033e d9ee 573e c399 423d
000002f0: 3214 11bc afa6 993c 218f 1d3e 620c c63c
00000300: 930f 283e 7712 933e 2bf3 b33d 3cff 42bd
00000310: 0b91 553d fae5 8ebe 6315 443a 63d3 383d
00000320: 787a 353e c65d e6be 4e01 b13c 68d2 e23c
00000330: f43f cf3e aaa8 c13d f193 5ebe f12f 013e
00000340: 9b69 4abc dfff 383d 99e2 ce3b 0689 01bd
00000350: 0433 1dbe 34f3 48bc 052b 26bb 2af8 253e
00000360: 5d34 a33e ea82 553e 7290 5bbb b91d 823e
00000370: 05e3 84bc 3ffd 0ebe 4aef 1abb 1b99 603e
00000380: ab0b f4bd 4224 0dbe 54a7 07be 2345 cfbe
00000390: 45a0 313d 575b f7bc a196 1abe 11ae 6c3e
000003a0: 9bf5 7a3d 0846 ffbc fcab 1fbe f52a fd3d
000003b0: 8ffc 45be b13b 273e 1feb e53c e2e9 42be
000003c0: 7772 ab3e 3056 79bd ae31 c1be 2f51 21be
000003d0: a3e1 90bd 0d68 e53c da9a 6fbe f638 fa3d
000003e0: e30f 413e d878 a13e 2457 c23d 1d64 493e
000003f0: f0fb cb3d 88d0 41be 9d9a 0d3e f573 babd

inception1.branch2.3.bias f4 [8]
0.12431342 0.10876583 0.08484768 -0.10756391 0.1451568 -0.014831204 -0.070218496 0.05037634
00000000: 0998 fe3d 9fc0 de3d 9fc4 ad3d 784a dcbd
00000010: fca3 143e 94fe 72bc b7ce 8fbd 6c57 4e3d

inception1.branch3.0.weight f4 [2, 16, 1, 1]
-0.7679252 -1.1567734 -1.2800924 1.1843736 1.9432943 0.751371 0.30162588 -1.5362383
-1.124838 -1.3675247 -0.08523159 0.35302472 -0.9691862 -0.2631585 0.7106708 1.4874306
-0.5070845 1.1758025 0.67582065 0.5864245 -1.7707187 -0.08111545 1.0695568 -0.378067
-0.21780442 0.4946609 -0.37311146 -0.10217301 -0.2942669 -0.5934942 0.7844352 0.23378009
00000000: bf96 44bf 2711 94bf 11da a3bf 8e99 973f
00000010: debd f83f da59 403f b56e 9a3e 75a3 c4bf
00000020: b1fa 8fbf 0d0b afbf e68d aebd a8bf b43e
00000030: 961c 78bf b6bc 86be 86ee 353f 2064 be3f
00000040: 4ad0 01bf b280 963f 9502 2d3f eb1f 163f
00000050: e9a6 e2bf db1f a6bd 3de7 883f ff91 c1be
00000060: 1f08 5fbe 3244 fd3e 7708 bfbe 1540 d1bd
00000070: 27aa 96be 3cef 17bf bfd0 483f 0c64 6f3e

inception1.branch3.0.bias f4 [2]
-0.006492633 -0.1317769
00000000: 27c0 d4bb 86f0 06be

inception1.branch3.1.weight f4 [2]
1.1079297 0.8908115
00000000: a4d0 8d3f 390c 643f

inception1.branch3.1.bias f4 [2]
0.101102754 -0.060754567
00000000: f60e cf3d c8d9 78bd

inception1.branch3.1.running_mean f4 [2]
-0.4449077 -0.07940639
00000000: f1ca e3be d19f a2bd

inception1.branch3.1.running_var f4 [2]
9.605219 2.7330825
00000000: faae 1941 d3ea 2e40

inception1.branch3.3.weight f4 [4, 2, 3, 3]
0.29259098 -0.1598119 -0.08493701 0.2428835 -0.30689877 0.07584449 -0.21960932 -0.326618
0.2637432 0.54874396 0.47655463 0.73744947 0.15401407 0.34512502 -0.047294497 0.13419808
-0.043404624 0.28638783 0.15173367 -0.13242538 -0.24064815 0.13358338 -0.043208443 0.103597775
0.5496642 -0.030812101 0.17651178 0.04743174 -0.1223825 -0.026835252 0.25067714 -0.12615906
-0.03446284 0.13617429 0.10460652 0.100841306 -0.25408462 -0.037298635 0.14428219 -0.050873183
-0.061750375 -0.01508989 -0.19913204 -0.4906856 0.58843374 0.17754689 -0.051471613 -0.20439269
-0.21763448 -0.109284475 -0.42040876 -0.18760781 0.051770505 -0.2485475 -0.31247145 -0.1882186
-0.019389307 -0.051966235 -0.24538992 -0.32623604 -0.11956887 -0.26259747 -0.14023218 -0.17200288
-0.2682653 -0.5203289 -0.07288379 0.15657258 0.044397164 0.121552244 0.08303689 0.07493975
00000000: 7cce 953e bba5 23be 75f3 adbd 74b6 783e
00000010: d621 9dbe 5b54 9b3d 44e1 60be 793a a7be
00000020: 5909 873e 7c7a 0c3f f8fe f33e 7dc9 3c3f
00000030: ddb5 1d3e 3ab4 b03e e0b7 41bd 396b 093e
00000040: 0cc9 31bd 6da1 923e 1260 1b3e 859a 07be
00000050: 786c 76be 15ca 083e 56fb 30bd 122b d43d
00000060: cbb6 0c3f a969 fcbc 81bf 343e c947 423d
00000070: ada3 fabd 9ad5 dbbc c158 803e d72f 01be
00000080: e828 0dbd 4671 0b3e f13b d63d e385 ce3d
00000090: 6117 82be 74c6 18bd b6be 133e 6660 50bd
000000a0: f6ed 7cbd 963b 77bc 45e9 4bbe 253b fbbe
000000b0: 98a3 163f dace 353e e6d3 52bd 514c 51be
000000c0: 93db 5ebe 8ad0 dfbd d13f d7be 431c 40be
000000d0: 4f0d 543d 3c83 7ebe 42fc 9fbe 60bc 40be
000000e0: 53d6 9ebc 8cda 54bd 7f47 7bbe 6908 a7be
000000f0: 86e0 f4bd 2d73 86be 0699 0fbe 8621 30be
00000100: 125a 89be 4634 05bf 1944 95bd 9054 203e
00000110: cdd9 353d 62f0 f83d 3f0f aa3d 037a 993d

inception1.branch3.3.bias f4 [4]
0.171496 0.17567553 -0.047656763 -0.16218539
00000000: a69c 2f3e 49e4 333e bd33 43bd ed13 26be

inception1.branch4.1.weight f4 [4, 16, 1, 1]
0.88839066 0.8409489 0.3686911 -0.22442308 0.17131954 -1.3469496 0.2895207 -0.13520612
0.15612882 -1.2556816 -0.8969549 1.2724707 -0.4281295 1.0387307 -0.40475273 -0.7365431
-0.11890935 0.19485769 -0.5818306 0.3697864 0.8147826 -0.5199533 0.42153138 0.43468148
0.1249166 -1.4175055 -0.38654134 1.1086658 -0.008551751 -0.4416514 -0.77342004 0.7524644
0.021645088 -0.372581 0.026402315 -0.5078257 -1.0051985 -0.69237936 -0.30936348 -0.7925208
0.64746726 0.15086305 -0.5056854 1.6606131 -0.32812986 -0.31465873 0.065287754 0.36365548
1.0863789 1.8274375 -0.5321283 0.8467108 0.83487445 -0.913742 -0.9625701 -0.44282213
0.7776714 1.5800459 0.5920222 0.6233366 -0.30374786 0.022028487 -0.41565764 -0.36848843
00000000: 926d 633f 6d48 573f 14c5 bc3e 2acf 65be
00000010: 646e 2f3e d868 acbf 0f3c 943e 7973 0abe
00000020: 3ce0 1f3e 2dba a0bf d69e 65bf 52e0 a23f
00000030: ca33 dbbe 21f5 843f c03b cfbe 178e 3cbf
00000040: bf86 f3bd c688 473e daf2 14bf a554 bd3e
00000050: 9895 503f a91b 05bf f6d2 d73e 928e de3e
00000060: 46d4 ff3d d270 b5bf bfe8 c5be c3e8 8d3f
00000070: a51c 0cbc 2220 e2be dbfe 45bf 82a1 403f
00000080: 0a51 b13c f0c2 bebe ab49 d83c dd00 02bf
00000090: 58aa 80bf c63f 31bf e464 9ebe a5e2 4abf
000000a0: 6ac0 253f d87b 1a3e 9974 01bf f88e d43f
000000b0: a300 a8be f31a a1be 96b5 853d 0d31 ba3e
000000c0: 770e 8b3f 79e9 e93f 8f39 08bf 0ac2 583f
000000d0: 55ba 553f ffea 69bf fe6a 76bf 95b9 e2be
000000e0: 7915 473f f23e ca3f c48e 173f fd92 1f3f
000000f0: d784 9bbe 1675 b43c 14d1 d4be 84aa bcbe

inception1.branch4.1.bias f4 [4]
0.09504707 0.25399938 0.05856517 0.11390956
00000000: 0aa8 c23d 350c 823e 08e2 6f3d 6a49 e93d

inception1.bn.weight f4 [20]
1.1093009 1.0226283 1.0246176 0.92825335 0.9185313 0.81777626 0.7986688 0.8592755
0.8405929 0.82779974 1.1263547 1.0096562 0.90819967 0.97242725 1.0951222 0.90038115
0.9404664 1.191467 1.1035296 0.93674207
00000000: 92fd 8d3f 7ce5 823f ab26 833f 03a2 6d3f
00000010: de24 6b3f c959 513f 8f75 4c3f 7bf9 5b3f
00000020: 1931 573f afea 533f 642c 903f 6a3c 813f
00000030: c67f 683f fef0 783f f72c 8c3f 617f 663f
00000040: 68c2 703f fe81 983f 7540 8d3f 54ce 6f3f

inception1.bn.bias f4 [20]
0.011184184 0.09346696 -0.0423373 0.1133453 -0.09409575 0.16913973 0.20343979 0.13834545
0.15359814 0.17834124 -0.012584988 0.03911897 0.1051383 0.039488953 0.012674933 0.12249601
0.093839 0.005302535 -0.016199822 -0.06455607
00000000: de3d 373c 9b6b bf3d e069 2dbd 9521 e83d
00000010: 46b5 c0bd f732 2d3e 8552 503e 6eaa 0d3e
00000020: d548 1d3e 169f 363e 4431 4ebc 373b 203d
00000030: c052 d73d 2bbf 213d 86aa 4f3c 30df fa3d
00000040: a92e c03d e3c0 ad3b 7db5 84bc f935 84bd

inception1.bn.running_mean f4 [20]
-0.6543701 -0.13954139 0.68970376 0.031922802 0.052166663 0.29914626 0.3211405 -0.4222139
0.6683056 0.11957981 0.09841316 -0.1850129 0.55337596 0.43824267 -0.36665738 -0.7768555
-1.0656782 0.25418633 -1.1046543 1.4891874
00000000: cd84 27bf f0e3 0ebe 6d90 303f 7cc1 023d
00000010: b6ac 553d b329 993e 876c a43e 6c2c d8be
00000020: 1316 2b3f 42e6 f43d d78c c93d 0674 3dbe
00000030: 0caa 0d3f 5861 e03e 84ba bbbe 01e0 46bf
00000040: 2568 88bf b624 823e 5065 8dbf b19d be3f

inception1.bn.running_var f4 [20]
1.7843895 3.0491724 3.3822577 2.7201567 0.4320677 0.50795716 1.3392272 0.45607418
1.0641823 0.56056786 0.5627171 0.28852692 1.3702672 0.3750825 0.93610984 1.2975191
6.9995685 7.8844533 6.4843054 3.279479
00000000: e066 e43f a425 4340 e976 5840 0c17 2e40
00000010: fa37 dd3e 7b09 023f cc6b ab3f 8e82 e93e
00000020: 2037 883f 6081 0f3f 3a0e 103f cdb9 933e
00000030: ea64 af3f d00a c03e e5a4 6f3f 1b15 a63f
00000040: 77fc df40 714d fc40 6e7f cf40 fce2 5140

dense_blocks.0.layers.0.norm1.weight f4 [20]
0.99272054 1.0834805 1.0643519 1.0710177 1.0384673 1.0129976 1.0011997 0.95428956
0.992627 1.0860049 0.87921226 0.8665023 1.0044659 1.0336161 0.8449351 0.9387463
0.9460464 1.032536 0.94773656 0.974446
00000000: ef22 7e3f 7daf 8a3f af3c 883f 1c17 893f
00000010: 7fec 843f e8a9 813f 5027 803f 524c 743f
00000020: ce1c 7e3f 3502 8b3f 0e14 613f 18d3 5d3f
00000030: 5792 803f 884d 843f ab4d 583f ad51 703f
00000040: 1930 723f 242a 843f dd9e 723f 4b75 793f

dense_blocks.0.layers.0.norm1.bias f4 [20]
-0.03221763 0.104985245 -0.021821205 0.061705735 -0.100097194 0.02480615 -0.01936505 0.06368338
0.08942205 -0.007704594 -0.12725395 -0.14814122 0.0045692455 0.13144207 -0.035372384 -0.026336625
0.062680595 0.08480373 0.01766029 0.03885719
00000000: a2f6 03bd 8102 d73d 62c2 b2bc 27bf 7c3d
00000010: c2ff ccbd 4436 cb3c 74a3 9ebc 6f6c 823d
00000020: e822 b73d d276 fcbb dc4e 02be 55b2 17be
00000030: 9cb9 953b c098 063e a2e2 10bd e8bf d7bc
00000040: af5e 803d 94ad ad3d 50ac 903c b828 1f3d

dense_blocks.0.layers.0.norm1.running_mean f4 [20]
0.32998857 0.30081487 0.22649156 0.32911998 0.22761716 0.3088413 0.32367182 0.3362569
0.30972704 0.30120313 0.29308024 0.3544133 0.30862537 0.32869336 0.36013284 0.41748044
0.42755604 0.35245165 0.3992425 0.2722279
00000000: 43f4 a83e 6804 9a3e 67ed 673e 6a82 a83e
00000010: 7914 693e 7220 9e3e 50b8 a53e dd29 ac3e
00000020: 8b94 9e3e 4c37 9a3e 9d0e 963e a975 b53e
00000030: 2504 9e3e 7f4a a83e 5563 b83e ffbf d53e
00000040: a0e8 da3e 8b74 b43e 8369 cc3e 7561 8b3e

dense_blocks.0.layers.0.norm1.running_var f4 [20]
0.2977141 0.6891413 0.54077697 0.6840387 0.33095375 0.34499165 0.5318778 0.23886736
0.43284887 0.5337774 0.560065 0.21272627 0.56961495 0.70222765 0.19653323 0.06774135
0.13784672 0.67923796 0.17496292 0.114339925
00000000: fc6d 983e 906b 303f 5c70 0a3f 291d 2f3f
00000010: c572 a93e bfa2 b03e 2529 083f a599 743e
00000020: 5e9e dd3e a3a5 083f 6b60 0f3f ead4 593e
00000030: 49d2 113f 31c5 333f 0240 493e fabb 8a3d
00000040: b127 0d3e 8ae2 2d3f 7b29 333e 0d2b ea3d

dense_blocks.0.layers.0.conv1.weight f4 [32, 20, 1, 1]
0.025504058 -0.24795462 -0.47138414 -0.105814375 0.21430963 0.15837827 -0.6543557 -0.14370312
0.3777785 -0.26092198 0.15165596 0.5081017 -0.041894943 0.030324176 0.16695507 -0.018363139
0.19599743 -0.053195942 0.17034273 -0.08660248 -0.16270697 -0.065228015 -0.15378413 -0.16102152
-0.13104688 0.26465875 0.30294362 0.11415538 0.40259957 0.19422442 -0.35402986 0.10641099
0.03906413 -0.546479 0.10540894 -0.065417714 0.56367093 -0.14664398 -0.43324244 0.04573428
-0.38318396 0.22132589 -0.35506505 -0.012740798 -0.045936964 0.21834417 0.38567042 0.07462428
-0.20334359 -0.3625375 0.021248948 0.20606776 0.23632193 -0.35299587 -0.26207107 0.025163379
0.21551472 -0.005044812 0.18334164 0.0020324297 0.21590431 -0.075613484 0.006279763 0.58144575
0.32332557 -0.06524171 0.16248247 0.017526746 -0.15643065 0.33909822 -0.081736565 0.4216855
-0.20589848 -0.3868446 0.113123894 0.080712184 0.20421106 0.031628143 -0.12934558 0.35196123
-0.040840138 -0.08609526 0.235079 0.45841116 -0.2429711 -0.40318403 0.20784675 -0.12575133
0.0144512905 0.44764632 -0.1641441 0.16583271 0.5434471 0.25968271 0.23931238 0.11483524
0.14454949 -0.32048574 -0.010327066 -0.44444773 0.50181764 -0.07241565 -0.19237457 -0.47698876
0.22596069 -0.24513125 0.1462145 0.00067431876 0.48557258 -0.28157732 -0.073771656 0.100982375
0.23353672 -0.22815609 -0.08603679 0.20690055 0.23057906 0.048021402 0.055633564 0.23286653
-0.11007212 -0.389325 0.1683803 0.19639136 -0.011999985 -0.014724539 -0.14052181 -0.004386378
0.38359678 0.27658466 -0.06410293 0.06174563 0.05836268 0.2851607 0.5045466 0.046495374
0.5063295 0.2667199 -0.029746281 0.0885279 0.48661956 0.27097213 0.15619041 -0.013700263
-0.17219841 0.23309673 -0.49043807 0.5749242 0.07167056 -0.15891397 -0.32842585 0.079862945
-0.39574832 0.04403734 0.22724843 -0.21093479 -0.34014478 -0.5990366 -0.1047727 -0.39728394
0.0006386978 -0.118886635 0.3647702 -0.014041723 -0.104793906 0.13166669 -0.3619244 -0.16835792
-0.3716894 -0.21192873 -0.21238686 -0.32483044 0.0063774884 -0.03184783 0.23274267 -0.115517326
0.31769586 0.15394996 -0.02883017 -0.10460107 -0.19047278 0.52342016 0.30837777 -0.4852937
-0.18964438 -0.07770363 0.21332714 0.22217703 0.04341466 -0.092103526 0.3401114 0.14460902
0.060550105 0.12201027 0.060611654 0.11618593 0.29856062 0.057441372 0.19692871 -0.03904866
0.12950057 0.18902545 -0.34407267 0.12210626 -0.112494335 0.11073708 -0.37081268 0.17375843
0.17623445 0.15331136 -0.5515959 0.10024195 -0.29218596 -0.4018685 0.094260655 -0.23814812
-0.1045819 -0.05736138 -0.2848851 0.34501913 0.07707075 0.27651653 0.35979387 -0.38952866
0.085103616 -0.4122246 0.21699318 0.16977909 0.13217995 -0.12566173 0.32900804 -0.21635629
0.1257687 -0.0038015156 -0.66801786 0.30024055 0.2543462 -0.08914992 -0.34223136 -0.20729905
-0.23869148 -0.17512794 0.35767016 0.24605665 -0.12581916 0.26500005 -0.26900792 0.24372393
0.112215996 0.40846142 -0.07741594 0.23432925 0.15388158 0.2208919 0.10313898 -0.0204831
00000000: e3ed d03c d1e7 7dbe 4359 f1be 35b5 d8bd
00000010: fc73 5b3e ea2d 223e db83 27bf e926 13be
00000020: 2f6c c13e 9197 85be b34b 1b3e f412 023f
00000030: 089a 2bbd 686a f83c 45f6 2a3e 4b6e 96bc
00000040: 8db3 483e fde3 59bd 536e 2e3e a45c b1bd
00000050: a89c 26be 4496 85bd 9679 1dbe d3e2 24be
00000060: 2731 06be 5a81 873e 6d1b 9b3e 4cca e93d
00000070: 8821 ce3e c4e2 463e 6743 b5be 01ee d93d
00000080: b601 203d 0ce6 0bbf a4e0 d73d b9f9 85bd
00000090: bd4c 103f d729 16be f4d1 ddbe de53 3b3d
000000a0: b030 c4be 41a3 623e 16cb b5be c8be 50bc
000000b0: 6628 3cbd 9d95 5f3e 9876 c53e 9dd4 983d
000000c0: 4d39 50be 849e b9be 4612 ae3c 6d03 533e
000000d0: 60fe 713e e0bb b4be 2e2e 86be 6e23 ce3c
000000e0: e4af 5c3e f34e a5bb e9bd 3b3e 8332 053b
000000f0: 0516 5d3e 3edb 9abd 78c6 cd3b a1d9 143f
00000100: ee8a a53e 729d 85bd ce61 263e 4094 8f3c
00000110: 5b2f 20be 489e ad3e 8065 a7bd 29e7 d73e
00000120: 0dd7 52be 7f10 c6be 80ad e73d 6e4c a53d
00000130: b41c 513e 838c 013d 2b73 04be 4334 b43e
00000140: fd47 27bd b652 b0bd 8db8 703e deb4 ea3e
00000150: 6bcd 78be 236e cebe c7d5 543e f5c4 00be
00000160: 1bc5 6c3c e631 e53e 6415 28be 0dd0 293e
00000170: 591f 0b3f 22f5 843e 4e0e 753e bd2e eb3d
00000180: c804 143e b516 a4be db32 29bc a78e e3be
00000190: 1f77 003f a84e 94bd d7fd 44be df37 f4be
000001a0: 3d62 673e b003 7bbe 41b9 153e c4c4 303a
000001b0: f89c f83e e72a 90be 9815 97bd d9cf ce3d
000001c0: 4024 6f3e c0a1 69be 0e34 b0bd bddd 533e
000001d0: eb1c 6c3e 17b2 443d 05e0 633d 9074 6e3e
000001e0: 7e6d e1bd 9b55 c7be e36b 2c3e d11a 493e
000001f0: 969b 44bc 313f 71bc f3e4 0fbe 9bbb 8fbb
00000200: cc66 c43e 819c 8d3e 6648 83bd fce8 7c3d
00000210: b50d 6f3d 9500 923e f729 013f ef71 3e3d
00000220: cf9e 013f 838f 883e 79ae f3bc 1e4e b53d
00000230: 3326 f93e dcbc 8a3e 61f0 1f3e 1177 60bc
00000240: c854 30be e9b0 6e3e b31a fbbe 3b2e 133f
00000250: 04c8 923d 58ba 22be 6f27 a8be 2f8f a33d
00000260: 869f cabe 7f60 343d d0b3 683e 4aff 57be
00000270: 7527 aebe 765a 19bf 1293 d6bd cd68 cbbe
00000280: 496e 273a d67a f3bd 29c3 ba3e 410f 66bc
00000290: 309e d6bd a2d3 063e 284e b9be 0566 2cbe
000002a0: 134e bebe d803 59be f17b 59be 2d50 a6be
000002b0: 40fa d03b df72 02bd 1854 6e3e 5994 ecbd
000002c0: 08a9 a23e 0fa5 1d3e 402d ecbc 1639 d6bd
000002d0: 4c0b 43be ddfe 053f b1e3 9d3e 6a78 f8be
000002e0: 2332 42be 1523 9fbd 6e72 5a3e 6082 633e
000002f0: 92d3 313d c6a0 bcbd 1523 ae3e 6314 143e
00000300: 6303 783d 85e0 f93d ed43 783d e4f2 ed3d
00000310: f0dc 983e a547 6b3d aea7 493e 7df1 1fbd
00000320: cc9b 043e e38f 413e 4b2a b0be d912 fa3d
00000330: 6e63 e6bd 1fca e23d 29db bdbe bbed 313e
00000340: ce76 343e a7fd 1c3e 6435 0dbf a74b cd3d
00000350: 6699 95be b5c1 cdbe bb0b c13d 1add 73be
00000360: 092f d6bd c4f3 6abd 76dc 91be 59a6 b03e
00000370: 45d7 9d3d 9393 8d3e e736 b83e 4d70 c7be
00000380: ce4a ae3d 1a0f d3be 7633 5e3e 92da 2d3e
00000390: 2e5a 073e 78ad 00be be73 a83e 818c 5dbe
000003a0: 83c9 003e d922 79bb 3803 2bbf 21b9 993e
000003b0: aa39 823e 3c94 b6bd f338 afbe 3446 54be
000003c0: 8a6b 74be bd54 33be 8b20 b73e 46f6 7b3e
000003d0: bdd6 00be 16ae 873e 68bb 89be c492 793e
000003e0: 80d1 e53d db21 d13e 408c 9ebd 02f4 6f3e
000003f0: 2293 1d3e 7c31 623e 883a d33d 2dcc a7bc

dense_blocks.0.layers.0.norm2.weight f4 [32]
0.9046398 0.9279669 0.97294617 1.0461217 0.8879022 0.9382638 0.915544 1.0157515
1.0556722 1.0600835 0.9860433 1.0324723 0.9430776 0.8893825 0.9763645 0.89788175
1.0493511 1.0663316 1.0523317 0.96088433 1.2017001 0.9986719 1.0746452 0.9728638
1.0594027 1.115846 0.91586053 1.0913982 1.0696371 1.205159 0.9814045 0.9640697
00000000: 7996 673f 3d8f 6d3f 0013 793f 51e7 853f
00000010: 8f4d 633f 0e32 703f 1761 6a3f 2504 823f
00000020: 4420 873f d1b0 873f 556d 7c3f 0d28 843f
00000030: 896d 713f 92ae 633f 06f3 793f 94db 653f
00000040: 2351 863f 8e7d 883f ceb2 863f 84fc 753f
00000050: 4fd1 993f f6a8 7f3f f98d 893f 9a0d 793f
00000060: 829a 873f 0bd4 8e3f d675 6a3f f0b2 8b3f
00000070: dee9 883f a642 9a3f 533d 7b3f 46cd 763f

dense_blocks.0.layers.0.norm2.bias f4 [32]
-0.074483566 -0.057160765 -0.07689529 0.082058944 -0.115242206 0.05060161 -0.119611315 0.034817774
0.08937526 -0.012871477 -0.0276329 0.09157065 0.0051370035 -0.12516554 -0.013912265 -0.06404197
0.106014274 0.09349846 0.010476609 -0.063101746 -0.080258 -0.05836519 0.04153694 0.045280002
-0.07508714 0.026458016 -0.06675567 0.0982998 -0.048517372 0.10478362 -0.041787513 0.047182463
00000000: d78a 98bd 6821 6abd 477b 9dbd 850e a83d
00000010: 1b04 ecbd a243 4f3d c7f6 f4bd 159d 0e3d
00000020: 600a b73d e3e2 52bc 645e e2bc 6589 bb3d
00000030: 4f54 a83b 652b 00be 45f0 63bc 7028 83bd
00000040: 031e d93d 1f7c bf3d 15a6 2b3c 7d3b 81bd
00000050: 4e5e a4bd 5610 6fbd a322 2a3d 8677 393d
00000060: 49c7 99bd 7bbe d83c 32b7 88bd 6851 c93d
00000070: 27ba 46bd cb98 d63d 6229 2bbd 6642 413d

dense_blocks.0.layers.0.norm2.running_mean f4 [32]
-0.1373027 0.011148857 -0.01772557 0.49342445 0.29616314 0.23315674 0.6303411 -0.41766763
-0.26768345 0.49093816 -0.36193997 0.06933449 0.60614085 -0.09891405 -0.27247775 -0.28653437
-0.44950804 -0.45718518 -0.20557722 0.06406776 0.037602935 0.41112226 -0.016455067 -0.15346152
0.041450284 -0.3538651 -0.81960005 -0.4901636 0.014935608 -0.16715056 0.19420825 -0.41330332
00000000: 1499 0cbe b2a9 363c 3735 91bc 21a2 fc3e
00000010: b2a2 973e a4c0 6e3e 095e 213f 88d8 d5be
00000020: ce0d 89be 3f5c fb3e 3250 b9be 3eff 8d3d
00000030: 0c2c 1b3f 7393 cabd 3482 8bbe a2b4 92be
00000040: eb25 e6be 2d14 eabe d682 52be f535 833d
00000050: 8905 1a3d 9e7e d23e c7cc 86bc 0425 1dbe
00000060: c6c7 293d ce2d b5be 4fd1 51bf b9f6 fabe
00000070: 7bb4 743c 8429 2bbe 87de 463e 7e9c d3be

dense_blocks.0.layers.0.norm2.running_var f4 [32]
1.532663 0.9811494 0.45978907 1.12051 1.2583165 1.024173 0.86029303 0.96277094
0.53795516 1.2504518 0.8749239 1.2625595 1.1928871 0.956652 0.695444 2.796558
1.7627571 1.7794889 0.617535 0.5719562 0.4456578 2.5689416 0.547862 0.8445755
1.2649403 1.9453386 2.7218864 0.94231176 0.7163333 1.0616436 2.158235 1.3852493
00000000: 4d2e c43f 9b2c 7b3f 7969 eb3e df6c 8f3f
00000010: 8410 a13f 1a18 833f 2a3c 5c3f 2878 763f
00000020: 6eb7 093f ce0e a03f 03fb 5f3f 8d9b a13f
00000030: 86b0 983f 25e7 743f 9e08 323f cefa 3240
00000040: 06a2 e13f 4bc6 e33f c616 1e3f b96b 123f
00000050: 422d e43e 8a69 2440 af40 0c3f 1a36 583f
00000060: 90e9 a13f db00 f93f 6333 2e40 583b 713f
00000070: 9f61 373f f0e3 873f 8620 0a40 d94f b13f

dense_blocks.0.layers.0.conv2.weight f4 [8, 32, 3, 3]
0.19420277 -0.1439848 0.14520632 -0.06663605 0.23024674 0.1702934 -0.024951082 -0.054586604
-0.15301226 -0.26150241 -0.0814428 -0.021812465 0.035964888 0.07454145 0.18968497 0.098170646
0.10665463 -0.048174035 0.19439128 0.0024829907 0.15510699 -0.028117359 0.084935375 0.05858027
0.15679002 -0.16231622 0.00038327355 -0.007855781 0.27043828 -0.030528957 -0.043780204 -0.0034084227
-0.39936176 0.06323757 -0.068912484 -0.19123924 -0.10420643 0.2933618 0.010379302 0.10759919
0.14314291 -0.05781638 0.12637635 -0.02385371 -0.05267189 -0.26777592 -0.111142635 0.080762394
-0.054307718 0.19884875 -0.12869073 0.084702425 -0.047432095 -0.023888446 0.06713904 0.069550626
-0.1031074 -0.03474792 0.07203242 0.26182905 -0.06290342 -0.05983772 0.2645419 0.104428515
-0.107274264 -0.22945552 -0.12489933 -0.14891426 -0.53179795 -0.13598897 -0.28193665 0.33435822
-0.0022122911 -0.23112948 -0.20271608 0.12908918 -0.1466211 0.2756657 -0.07228539 0.12746747
-0.023496527 -0.14021738 -0.14704922 0.40512294 -0.031859327 -0.093780704 0.050133947 0.25280538
0.3734969 0.16009116 -0.25408402 -0.21589229 -0.5778283 -0.018836819 -0.21258818 -0.2775179
-0.069739796 0.092789516 0.19038324 -0.14715411 0.10432016 -0.12838855 -0.18485121 -0.26704124
-0.036442295 0.13333277 -0.17265418 -0.24422042 0.032377504 0.007132812 0.11972165 -0.2997488
0.13738693 -0.028644979 -0.12907892 0.13404486 0.023587525 0.1802248 -0.3376888 -0.032450676
-0.18365526 0.094552785 0.10956639 -0.051299512 0.21687578 0.18831791 -0.36251912 0.058751263
-0.21297394 -0.025776792 0.20884907 0.0785423 0.018420959 0.3445535 -0.13435377 -0.15588036
-0.0037087381 -0.0661885 -0.26877964 0.030872485 -0.007931347 -0.05911745 0.18984103 -0.16851412
-0.4342156 0.12633233 0.051009577 0.011426343 0.05945129 -0.055509858 0.049927533 -0.17105749
-0.1951244 0.15413253 0.19640754 0.19494899 -0.04456186 -0.060487796 -0.08060823 0.16500665
-0.06400241 0.052764304 -0.266843 0.18779401 -0.05506599 -0.53336656 -0.20192032 -0.196788
-0.01600921 -0.06957932 0.063348435 -0.110930495 -0.0046217204 -0.010008007 -0.18759082 0.1821336
0.09366689 0.041455273 0.13587779 0.13264473 0.07903931 -0.09298183 -0.04122525 -0.2199264
0.105030015 0.13649453 -0.27992454 -0.12561156 -0.02933624 0.05987145 0.05006388 0.11336946
0.056869432 -0.25932965 0.09007153 0.3160996 0.06450487 0.040998973 -0.24020974 -0.37327468
-0.50968397 -0.28544107 -0.20408525 0.025193764 0.11178208 -0.10186499 0.06772286 -0.13411054
-0.30734503 -0.12559749 0.27657083 -0.18688127 0.11330788 0.00039082675 -0.017924394 0.03969495
-0.2828023 -0.13895732 0.12095863 0.20673163 0.3051594 0.2628789 0.008500669 -0.056328725
-0.38756967 -0.06768529 0.099075444 -0.18944664 0.22614244 0.13595504 0.029441984 -0.11651768
-0.030946108 -0.13774577 0.22324577 -0.13686542 0.2784037 -0.035326168 0.17464471 -0.04194846
0.1318501 0.13446712 0.23393774 0.16648294 -0.10745451 -0.4594386 -0.38455266 0.03686816
-0.11191118 -0.16741475 -0.26875487 0.02224933 -0.40894166 0.08319319 0.08993693 -0.24422674
00000000: 17dd 463e c070 13be f7b0 143e 7b78 88bd
00000010: cdc5 6b3e 6561 2e3e 3666 ccbc 3496 5fbd
00000020: 3faf 1cbe a5e3 85be 7ccb a6bd 0eb0 b2bc
00000030: eb4f 133d 30a9 983d c73c 423e b10d c93d
00000040: be6d da3d 2352 45bd 820e 473e acb9 223b
00000050: 5ed4 1e3e 6056 e6bc 99f2 ad3d ddf1 6f3d
00000060: 908d 203e 3936 26be 1bf2 c839 89b5 00bc
00000070: e376 8a3e dd17 fabc df52 33bd d85f 5fbb
00000080: 2579 ccbe b382 813d fd21 8dbd 38d4 43be
00000090: 2e6a d5bd 8533 963e f30d 2a3c f75c dc3d
000000a0: 0e94 123e ded0 6cbd cd68 013e db68 c3bc
000000b0: 7bbe 57bd ed19 89be c09e e3bd c166 a53d
000000c0: c571 5ebd 029f 4b3e 81c7 03be 7778 ad3d
000000d0: 2848 42bd b4b1 c3bc 3180 893d 8f70 8e3d
000000e0: f929 d3bd d653 0ebd bc85 933d 750e 863e
000000f0: 82d3 80bd 6618 75bd 0972 873e 9ede d53d
00000100: 9cb2 dbbd 63f6 6abe 38cb ffbd fb7c 18be
00000110: e923 08bf b140 0bbe 005a 90be 0031 ab3e
00000120: 16fc 10bb 35ad 6cbe ce94 4fbe f42f 043e
00000130: d723 16be 0e24 8d3e 5d0a 94bd d586 023e
00000140: ca7b c0bc 2595 0fbe 1294 16be 466c cf3e
00000150: ed7e 02bd 1910 c0bd 4159 4d3d b56f 813e
00000160: fc3a bf3e f0ee 233e 4d17 82be de12 5dbe
00000170: 8eec 13bf ac4f 9abc b7b0 59be d416 8ebe
00000180: bdd3 8ebd 6e08 be3d d3f3 423e 91af 16be
00000190: cfa5 d53d 4a78 03be a349 3dbe a1b9 88be
000001a0: 8444 15bd 6388 083e 42cc 30be eb14 7abe
000001b0: 469e 043d 5dba e93b a030 f53d ad78 99be
000001c0: 29af 0c3e e0a8 eabc 442d 04be 0e43 093e
000001d0: a03a c13c da8c 383e 8ce5 acbe 00eb 04bd
000001e0: 2010 3cbe e4a4 c13d 5864 e03d 701f 52bd
000001f0: af14 5e3e 69d6 403e 1b9c b9be 2aa5 703d
00000200: d715 5abe da29 d3bc 88dc 553e c9da a03d
00000210: 8de7 963c 5169 b03e 0994 09be 1a9f 1fbe
00000220: 4d0e 73bb d68d 87bd 7c9d 89be 4be8 fc3c
00000230: 7bf2 01bc 2425 72bd b065 423e f78e 2cbe
00000240: 8251 debe 435d 013e 6bef 503d 8e35 3b3c
00000250: 3283 733d 4e5e 63bd d080 4c3d b229 2fbe
00000260: b1ce 47be ebd4 1d3e 0f1f 493e b5a0 473e
00000270: 7f86 36bd 0dc2 77bd ed15 a5bd 81f7 283e
00000280: b213 83bd 621f 583d a59f 88be 134d 403e
00000290: e08c 61bd b68a 08bf 33c4 4ebe cb82 49be
000002a0: bf25 83bc 9a7f 8ebd d3bc 813d 872f e3bd
000002b0: cd71 97bb a0f8 23bc cf17 40be 3b81 3a3e
000002c0: 6dd4 bf3d 01cd 293d 8c23 0b3e 05d4 073e
000002d0: 5ddf a13d 426d bebd cfdb 28bd 6334 61be
000002e0: fa19 d73d 39c5 0b3e 4552 8fbe 51a0 00be
000002f0: 8e52 f0bc c43b 753d c80f 4d3d 3f2e e83d
00000300: ecef 683d dbc6 84be 6c77 b83d cfd7 a13e
00000310: 211b 843d 8aee 273d 8bf9 75be dc1d bfbe
00000320: a67a 02bf 5525 92be b9fb 50be 2763 ce3c
00000330: 01ee e43d 989e d0bd 48b2 8a3d 4654 09be
00000340: 545c 9dbe a19c 00be b19a 8d3e ce5d 3fbe
00000350: f60d e83d e1e7 cc39 2ed6 92bc 2c97 223d
00000360: 77cb 90be d44a 0ebe 29b9 f73d 75b1 533e
00000370: da3d 9c3e 1098 863e 6446 0b3c f3b8 66bd
00000380: 886f c6be 969e 8abd 11e8 ca3d 4dfe 41be
00000390: e291 673e cc37 0b3e 5130 f13c d2a0 eebd
000003a0: b182 fdbc 3a0d 0dbe 8a9a 643e 7326 0cbe
000003b0: ee8a 8e3e 2cb2 10bd 10d6 323e 26d2 2bbd
000003c0: b603 073e c0b1 093e 608d 6f3e 817a 2a3e
000003d0: 1c11 dcbd 893b ebbe 16e4 c4be 1103 173d
000003e0: b031 e5bd c66e 2bbe 3d9a 89be 3a44 b63c
000003f0: cd60 d1be 3161 aa3d da30 b83d 9316 7abe

dense_blocks.0.layers.1.norm1.weight f4 [28]
0.921092 0.98152673 1.0634558 1.0647461 0.9941165 0.9583655 0.9592984 0.95309186
0.99797225 1.0991448 0.99413174 0.95642596 1.0289011 1.0072575 1.026268 1.1622994
1.0127343 0.9985801 0.9945463 1.0221635 0.9409694 1.0056475 0.91335374 1.0271722
0.9574947 0.87435466 0.97621155 0.997249
00000000: afcc 6b3f 5645 7b3f 521f 883f 9a49 883f
00000010: 6b7e 7e3f 7157 753f 9494 753f d4fd 733f
00000020: 1c7b 7f3f c7b0 8c3f 6b7f 7e3f 55d8 743f
00000030: 08b3 833f d0ed 803f c05c 833f 3ac6 943f
00000040: 47a1 813f f2a2 7f3f 969a 7e3f 41d6 823f
00000050: 5fe3 703f 0fb9 803f 8dd1 693f 617a 833f
00000060: 5f1e 753f b5d5 5f3f 00e9 793f b64b 7f3f

dense_blocks.0.layers.1.norm1.bias f4 [28]
-0.0033962366 0.15202916 -0.020034414 -0.02001091 0.034872096 0.008765487 0.00016554788 -0.016497843
0.092190444 0.25118047 -0.092607625 -0.11404656 0.30129898 -0.03265168 0.050656706 0.20496392
-0.021199975 0.16701378 0.11773382 0.08227427 -0.04190745 -0.020581553 -0.061870053 -0.076289624
-0.10748252 -0.086231485 -0.10150292 -0.108187445
00000000: 6593 5ebb 88ad 1b3e 361f a4bc eced a3bc
00000010: 0bd6 0e3d 1e9d 0f3c ec96 2d39 7c26 87bc
00000020: 58ce bc3d ba9a 803e 11a9 bdbd 3e91 e9bd
00000030: dc43 9a3e c5bd 05bd 687d 4f3d 10e2 513e
00000040: 92ab adbc a905 2b3e 6e1e f13d 6a7f a83d
00000050: 25a7 2bbd a59a a8bc 746b 7dbd bc3d 9cbd
00000060: cc1f dcbd 229a b0bd c3e0 cfbd 6191 ddbd

dense_blocks.0.layers.1.norm1.running_mean f4 [28]
0.32998857 0.30081487 0.22649156 0.32911998 0.22761716 0.3088413 0.32367182 0.3362569
0.30972704 0.30120313 0.29308024 0.3544133 0.30862537 0.32869336 0.36013284 0.41748044
0.42755604 0.35245165 0.3992425 0.2722279 -1.8443234 -1.3454953 -1.817497 0.5134063
-1.9111547 -2.8896735 1.8061615 1.6982533
00000000: 43f4 a83e 6804 9a3e 67ed 673e 6a82 a83e
00000010: 7914 693e 7220 9e3e 50b8 a53e dd29 ac3e
00000020: 8b94 9e3e 4c37 9a3e 9d0e 963e a975 b53e
00000030: 2504 9e3e 7f4a a83e 5563 b83e ffbf d53e
00000040: a0e8 da3e 8b74 b43e 8369 cc3e 7561 8b3e
00000050: ca12 ecbf 3139 acbf bea3 e8bf 986e 033f
00000060: b8a0 f4bf 69f0 38c0 4d30 e73f 5d60 d93f

dense_blocks.0.layers.1.norm1.running_var f4 [28]
0.2977141 0.6891413 0.54077697 0.6840387 0.33095375 0.34499165 0.5318778 0.23886736
0.43284887 0.5337774 0.560065 0.21272627 0.56961495 0.70222765 0.19653323 0.06774135
0.13784672 0.67923796 0.17496292 0.114339925 6.701149 6.5133586 6.8910356 12.745265
8.531807 11.913987 13.648182 6.4020853
00000000: fc6d 983e 906b 303f 5c70 0a3f 291d 2f3f
00000010: c572 a93e bfa2 b03e 2529 083f a599 743e
00000020: 5e9e dd3e a3a5 083f 6b60 0f3f ead4 593e
00000030: 49d2 113f 31c5 333f 0240 493e fabb 8a3d
00000040: b127 0d3e 8ae2 2d3f 7b29 333e 0d2b ea3d
00000050: d06f d640 6f6d d040 5d83 dc40 9bec 4b41
00000060: 4882 0841 b19f 3e41 f45e 5a41 e2dd cc40

dense_blocks.0.layers.1.conv1.weight f4 [32, 28, 1, 1]
0.033620603 0.104043715 0.21387531 0.21507236 -0.6897301 0.23162444 0.42887756 0.28431982
-0.02702213 0.038207393 -0.25013098 -0.044995297 0.20755062 -0.20535827 0.005691527 0.18795624
0.09415413 0.19275798 -0.12756236 -0.23893496 -0.36042216 -0.3148248 -0.21777976 -0.09469206
-0.46889246 -0.21566762 -0.25958505 -0.4028722 0.14572375 0.7338533 -0.39391243 -0.27224076
0.1733471 0.08173878 0.06957394 0.12707071 -0.5633265 0.03365678 -0.3097984 0.03695808
-0.41300523 0.19800778 -0.05624983 0.48299375 -0.21113247 0.15304987 0.22570196 0.090402745
0.7800621 -0.3802975 0.022408705 0.37664896 0.71718574 0.05611615 0.04620147 -0.26946542
-0.11290433 0.2392087 -0.20161547 0.4640138 -0.15662043 -0.1237922 0.5270759 0.027501844
0.0028442452 -0.54058 -0.33944446 -0.1920689 0.031416442 -0.03437573 -0.016030751 -0.007573131
-0.3043224 -0.31466755 -0.25462958 0.027577918 0.56560117 -0.102520205 -0.27126467 -0.39290392
-0.12411041 0.0439251 0.37206572 -0.41089618 -0.5891904 -0.28003582 0.24784733 0.064579315
-0.16746785 0.64927816 -0.50612575 0.0863424 -0.022327375 0.43744954 -0.026325824 -0.08563276
-0.5172583 -0.32972288 -0.0635071 0.20496163 0.052987646 -0.30662474 0.07456528 -0.44947666
-0.32949135 -0.29170245 -0.091415 0.3179209 -0.43615365 -0.12471777 0.32434446 -0.27643895
0.24837722 0.033890836 -0.16848932 -0.09207848 -0.007993248 0.022831975 -0.5997142 0.5234661
0.0773066 0.47485253 0.21003774 0.017321346 0.36567068 -0.019712713 0.07934026 -0.4343499
0.212101 0.056680635 -0.09985747 -0.26492664 -0.29254866 0.23841213 -0.27401906 0.11728284
-0.28106806 -0.34690547 -0.46737 -0.009065303 0.16544285 -0.22658041 -0.30729818 0.3794889
-0.09831027 0.076710254 -0.31792706 0.15550393 -0.58860433 -0.37349695 0.18376863 -0.15498973
-0.11912827 -0.26862422 0.07766929 0.5459872 0.61895114 0.3551959 -0.034447584 0.24486479
0.10636515 -0.06576497 0.24108239 -0.089077674 0.21470405 0.20637743 -0.035455536 0.35702688
-0.016301725 0.21511884 -0.20350212 -0.28146031 -0.19434111 -0.27675357 -0.15840036 -0.10059016
0.071688436 0.21611613 0.06989009 0.13718316 0.31330472 0.0117540825 0.31950593 -0.5737572
0.04874619 -0.16390839 0.09932119 -0.13190618 0.14181328 0.120790005 0.11423814 0.189966
0.05231773 -0.066480964 -0.29152456 -0.06899455 -0.0055221803 -0.6291485 -0.17093758 -0.14347383
-0.13216566 -0.19017151 0.16542986 0.3417029 -0.43720582 -0.45338944 0.29745325 -0.08995536
-0.01756867 -0.12306342 0.21695341 0.4647785 -0.02012815 -0.45444906 0.006588487 -0.38426495
-0.29466048 -0.10843017 0.26049334 -0.118716896 0.625023 0.08176179 -0.00112014 0.13223487
0.22669141 0.056602858 0.16589502 0.051584963 -0.29020962 -0.07021467 0.39405748 0.296576
0.4261097 0.14066336 -0.16829236 -0.4465824 -0.09441687 0.01833509 -0.119326875 -0.07386566
-0.10835549 0.32642025 -0.056601822 0.461874 0.14134784 0.44225568 0.4605092 0.16175556
-0.0049183057 0.113352306 0.31334057 0.3235054 -0.052219238 -0.5402972 -0.4421048 -0.18460645
00000000: c2b5 093d df14 d53d 2102 5b3e ee3b 5c3e
00000010: 2792 30bf f52e 6d3e d795 db3e 5e92 913e
00000020: 845d ddbc 5b7f 1c3d 2b11 80be fd4c 38bd
00000030: 2688 543e 7049 52be fd7f ba3b 9a77 403e
00000040: e1d3 c03d 5962 453e b59f 02be 5eab 74be
00000050: 4189 b8be b730 a1be a801 5fbe e9ed c1bd
00000060: ac12 f0be f9d7 5cbe 55e8 84be 4445 cebe
00000070: 9b38 153e cfdd 3b3f e4ae c9be 2463 8bbe
00000080: e781 313e a966 a73d c87c 8e3d d31e 023e
00000090: 2a36 10bf b1db 093d e59d 9ebe 5b61 173d
000000a0: 6c75 d3be 8dc2 4a3e 3966 66bd f54a f73e
000000b0: 1c33 58be 1bb9 1c3e 6a1e 673e 1325 b93d
000000c0: 26b2 473f 5bb6 c2be 7692 b73c 22d8 c03e
000000d0: 7c99 373f 0cda 653d c13d 3d3d 5ff7 89be
000000e0: 633a e7bd 20f3 743e 4974 4ebe 3793 ed3e
000000f0: 1b61 20be c486 fdbd 72ee 063f 8c4b e13c
00000100: 8466 3a3b 7363 0abf aacb adbe b6ad 44be
00000110: 87ae 003d 91cd 0cbd ec52 83bc 0728 f8bb
00000120: 25d0 9bbe 1b1c a1be cf5e 82be 16eb e13c
00000130: 3dcb 103f 1df6 d1bd 34e3 8abe b42a c9be
00000140: 992d febd ceea 333d 667f be3e fc60 d2be
00000150: 2fd5 16bf db60 8fbe b1cb 7d3e 2942 843d
00000160: b17c 2bbe 1837 263f 7591 01bf 49d4 b03d
00000170: e6e7 b6bc 63f9 df3e 41a9 d7bc 3a60 afbd
00000180: 0a6b 04bf 70d1 a8be 0310 82bd 76e1 513e
00000190: 9309 593d ebfd 9cbe aeb5 983d ce21 e6be
000001a0: 17b3 a8be 065a 95be ca37 bbbd 87c6 a23e
000001b0: 884f dfbe 086c ffbd 7a10 a63e 6889 8dbe
000001c0: 9956 7e3e 1ed1 0a3d 7788 2cbe a493 bcbd
000001d0: 1df6 02bc 1f0a bb3c df86 19bf e001 063f
000001e0: ec52 9e3d df1f f33e 2214 573e 7fe5 8d3c
000001f0: 3039 bb3e 8e7c a1bc 257d a23d 1c63 debe
00000200: 0131 593e f429 683d 1382 ccbd 77a4 87be
00000210: f0c8 95be 4f22 743e 3a4c 8cbe fc31 f03d
00000220: 27e8 8fbe 989d b1be 1f4b efbe a386 14bc
00000230: da69 293e b204 68be 3056 9dbe 5e4c c23e
00000240: e556 c9bd 441a 9d3d 56c7 a2be 6c3c 1f3e
00000250: c6ae 16bf fe3a bfbe d82d 3c3e a1b5 1ebe
00000260: 86f9 f3bd 1d89 89be 1411 9f3d d1c5 0b3f
00000270: 9573 1e3f 3ddc b53e e918 0dbd d6bd 7a3e
00000280: f9d5 d93d c9af 86bd 4dde 763e 5b6e b6bd
00000290: 61db 5b3e 9b54 533e d339 11bd 3acc b63e
000002a0: 328b 85bc 1d48 5c3e dc62 50be 911b 90be
000002b0: 5b01 47be a5b2 8dbe b433 22be 3702 cebd
000002c0: 63d1 923d 8c4d 5d3e 8922 8f3d be79 0c3e
000002d0: 7a69 a03e 3294 403c 4896 a33e c0e1 12bf
000002e0: 16aa 473d 9ad7 27be e868 cb3d 6a12 07be
000002f0: 8037 113e c060 f73d b0f5 e93d 7286 423e
00000300: 1e4b 563d 2c27 88bd b542 95be 044d 8dbd
00000310: 68f3 b4bb e00f 21bf 430a 2fbe ceea 12be
00000320: 6f56 07be 52bc 42be 7266 293e aff3 ae3e
00000330: 71d9 dfbe a922 e8be cb4b 983e 843a b8bd
00000340: 2cec 8fbc ad08 fcbd 0929 5e3e 73f7 ed3e
00000350: cae3 a4bc 8cad e8be 3ce4 d73b 60be c4be
00000360: bddd 96be a310 debd 625f 853e d821 f3bd
00000370: 8201 203f ba72 a73d a9d1 92ba 9468 073e
00000380: cb21 683e 66d8 673d 62e0 293e c14a 533d
00000390: 5b96 94be b5cc 8fbd e7c1 c93e cfd8 973e
000003a0: 0d2b da3e 0e0a 103e d554 2cbe 73a6 e4be
000003b0: a25d c1bd 7833 963c a661 f4bd e146 97bd
000003c0: 7ce9 ddbd 8e20 a73e 50d7 67bd c07a ec3e
000003d0: 7dbd 103e 566f e23e ddc7 eb3e 40a3 253e
000003e0: bd29 a1bb 4125 e83d 2d6e a03e 80a2 a53e
000003f0: d7e3 55bd eb50 0abf 8f5b e2be 7909 3dbe

dense_blocks.0.layers.1.norm2.weight f4 [32]
1.1043619 1.013856 0.9709871 1.047209 0.96078765 1.0356779 1.0825895 0.89172256
0.96603686 0.9702901 0.95617265 0.99207044 1.0682334 1.0286596 1.0326066 1.09356
1.0995649 0.8616118 1.0724165 0.9900818 0.9544742 0.939066 1.000502 0.97939235
0.960718 1.0231882 1.007516 1.0083507 0.9069591 1.0871665 1.033882 0.89950657
00000000: bb5b 8d3f 09c6 813f 9c92 783f f20a 863f
00000010: 2ef6 753f 1891 843f 4b92 8a3f ee47 643f
00000020: 314e 773f ef64 783f bbc7 743f 54f8 7d3f
00000030: dfbb 883f 1eab 833f 742c 843f c6f9 8b3f
00000040: 8bbe 8c3f 9792 5c3f f244 893f 0076 7d3f
00000050: 6c58 743f a166 703f 7310 803f 75b9 7a3f
00000060: 9df1 753f d5f7 823f 49f6 803f a311 813f
00000070: 792e 683f 4628 8b3f 3f56 843f 1046 663f

dense_blocks.0.layers.1.norm2.bias f4 [32]
0.07924521 0.010875341 -0.037605345 0.08374466 0.15204485 0.06986853 0.09245647 -0.046185873
-0.09890098 -0.0010605942 0.02330839 -0.05638954 0.14695476 0.0007160406 -0.06680718 -0.02807014
0.042676404 -0.16763344 0.073982574 -0.024193687 0.031124655 0.09433084 -0.11004106 0.049425222
-0.03758328 0.031943254 0.08235017 0.03482284 -0.03052089 -0.078928284 -0.06470011 -0.19926201
00000000: 504b a23d 7c2e 323c 1008 1abd 5282 ab3d
00000010: a5b1 1b3e 3b17 8f3d d159 bd3d 662d 3dbd
00000020: 998c cabd a303 8bba 3df1 be3c b8f8 66bd
00000030: 4f7b 163e acb4 3b3a 34d2 88bd 5af3 e5bc
00000040: 74cd 2e3d 1aa8 2bbe 2d84 973d d731 c6bc
00000050: 22f9 fe3c 8730 c13d 355d e1bd 1a72 4a3d
00000060: edf0 19bd eed6 023d 35a7 a83d 65a2 0e3d
00000070: f206 fabc 27a5 a1bd 7e81 84bd 570b 4cbe

dense_blocks.0.layers.1.norm2.running_mean f4 [32]
-0.34395474 0.6215111 -0.4699602 -0.6271371 -0.2827848 0.54625916 -0.33151755 -0.33672297
0.94368106 -0.35970753 0.21400072 0.41993755 -0.011124335 -0.44177473 0.0580127 -0.9708606
0.16504633 0.033365633 -0.6523628 0.44179133 -0.31514668 0.03990588 0.39431915 0.023503318
-0.3108489 -0.73802495 -0.25324312 -0.057615843 0.05991209 -0.53681546 0.09961767 0.20196305
00000000: d61a b0be 5a1b 1f3f a09e f0be 0f8c 20bf
00000010: 2bc9 90be a4d7 0b3f abbc a9be f466 acbe
00000020: 1595 713f 962b b8be 0123 5b3e 0e02 d73e
00000030: d842 36bc 4c30 e2be ba9e 6d3d 528a 78bf
00000040: e801 293e 67aa 083d 4001 27bf 7932 e23e
00000050: e85a a1be 5974 233d 33e4 c93e 088a c03c
00000060: 9627 9fbe 34ef 3cbf 15a9 81be 97fe 6bbd
00000070: 6166 753d bd6c 09bf 5904 cc3d 67cf 4e3e
